intro_rl/dqn/checkpoint.pth (torch, 22191 bytes, 6 tensors)

fc1.weight f4 [64, 8]
0	0xbda288bc	-0.07936236
1	0xbec61253	-0.38685855
2	0xbec34358	-0.38137317
3	0xbf0394f3	-0.51399153
4	0x3e86deb1	0.26341775
5	0x3cf91b0a	0.030408401
6	0xbe9e1132	-0.30872494
7	0x3e343fb3	0.17602424
8	0xbe1eb8cf	-0.15500186
9	0xbda5b5d7	-0.08091324
10	0x3e8592d4	0.26088583
11	0xbecb534d	-0.3971199
12	0x3eb9c539	0.3628328
13	0xbcfc9ee0	-0.030837476
14	0xbd2b6014	-0.041839674
15	0x3c703aee	0.014662487
16	0x3ea0b319	0.3138664
17	0x3e1d62cf	0.15369724
18	0x3e9e5b54	0.30929053
19	0xbcc83dd1	-0.024443539
20	0xbf28aa95	-0.6588529
21	0xbeeb3c34	-0.4594437
22	0xbe723524	-0.23653084
23	0x3e941917	0.28925392
24	0x3cf9512f	0.03043422
25	0xbf137b86	-0.57610357
26	0x3ed4ef04	0.41588604
27	0x3da04ee4	0.07827547
28	0xbf19e9bf	-0.60122293
29	0xbd1776c0	-0.036978483
30	0x3e19af00	0.15008163
31	0x3e901131	0.28138116
32	0xbc9a9335	-0.018869022
33	0xbf1eca5f	-0.62027544
34	0xbee3d3f8	-0.44497657
35	0xbf40ac6a	-0.75263083
36	0x3f3d88ff	0.74037164
37	0x3e4cd166	0.20001754
38	0xbea0ac9c	-0.3138169
39	0xbe533e9e	-0.20629355
40	0x3f4daf57	0.8034567
41	0xbf4fc3a6	-0.8115791
42	0x3f3ff0a5	0.7497657
43	0xbefb38ac	-0.49066675
44	0xbe98a72e	-0.29815048
45	0x3e52988b	0.20566003
46	0x3d2c3cc0	0.042050123
47	0x3df414a1	0.11917997
48	0xbef7da48	-0.48408723
49	0xbed51c34	-0.4162308
50	0xbf5bd791	-0.85875803
51	0xbe6000c6	-0.21875295
52	0x3f27d7b2	0.655635
53	0x3e84d306	0.25942248
54	0x3e6bb471	0.23018052
55	0x3ef520c7	0.4787657
56	0x3e9ffe9e	0.31248945
57	0xbf61b57a	-0.88167536
58	0x3f628295	0.884805
59	0xbec87131	-0.39148858
60	0xbeeb4cea	-0.45957118
61	0xbddaefe2	-0.10690285
62	0x3e596766	0.2123085
63	0x3c9549c4	0.01822365
64	0x3cce76cf	0.025203137
65	0x3d831d7d	0.06402109
66	0x3e0acd3b	0.13554852
67	0x3c18d4bd	0.0093280645
68	0xbf0297ac	-0.5101268
69	0xbf50ff7b	-0.8163983
70	0x3db25292	0.08707155
71	0x3e07fb4f	0.1327946
72	0x3f522f82	0.8210374
73	0xbf0aaecd	-0.54172975
74	0x3ebdece1	0.37094787
75	0xbe47e58f	-0.19521163
76	0x3bc02189	0.0058633727
77	0x3ea01b9c	0.31271064
78	0x3d8dd8c9	0.06926114
79	0x3dd2e456	0.10297458
80	0xbf807653	-1.003611
81	0xbf202063	-0.6254942
82	0xbef71109	-0.48255184
83	0xbeacd464	-0.3375579
84	0x3e875925	0.264352
85	0x3e4655f6	0.19368729
86	0xbe7586cf	-0.23977207
87	0x3e4ce3fe	0.20008847
88	0x3d64c402	0.05585099
89	0xbd0aa262	-0.033846267
90	0xbf487f97	-0.78319687
91	0xbf9d1100	-1.2270813
92	0xbf540d6a	-0.8283297
93	0x3ea9432b	0.33059058
94	0x3bfe1a7b	0.0077546216
95	0x3dcdfea5	0.10058335
96	0xbe5c544a	-0.21516529
97	0xbe936218	-0.28785777
98	0xbf4095c7	-0.7522854
99	0xbeab25ca	-0.33427268
100	0x3f765dd8	0.96236944
101	0x3eb6f205	0.3573152
102	0x3d1366b5	0.03598662
103	0x3e553baf	0.20823549
104	0xbf04adc9	-0.51827675
105	0xbf11b321	-0.56913954
106	0xbf07dcbe	-0.530712
107	0xbec1410a	-0.37744933
108	0x3f457e5d	0.7714594
109	0x3e5f57e9	0.21810879
110	0xbda4488d	-0.080216505
111	0x3ea19258	0.31556964
112	0x3f8781cb	1.0586485
113	0x3e155db5	0.14586528
114	0x3efa3058	0.48865008
115	0xbc8ab0d3	-0.01693002
116	0x3f0704e7	0.52741855
117	0x3e5ee2a7	0.21766149
118	0xbf0ac3b4	-0.5420487
119	0xbf20db0e	-0.6283425
120	0xbe3f781f	-0.18698166
121	0xbd97889a	-0.073991016
122	0x3fc70f70	1.5551586
123	0xbf63d349	-0.8899427
124	0x3f81399c	1.0095706
125	0xbee8d2e9	-0.45473412
126	0xbe54a131	-0.20764615
127	0x3e80739e	0.2508821
128	0x3c4c6ea8	0.012477554
129	0x3e07dee3	0.13268618
130	0x3eaa9f7d	0.33324805
131	0x3e079cd6	0.13243422
132	0x3e1c1173	0.15241031
133	0x3f0df0d6	0.5544561
134	0x3f0143e0	0.50494194
135	0xbce420ab	-0.027847609
136	0x3e3eb20f	0.18622611
137	0xbf19281d	-0.59826833
138	0x3dafca36	0.085834906
139	0xbf4e7e1f	-0.80661196
140	0xbef50027	-0.4785168
141	0xbcc94a94	-0.024571694
142	0xba1dc986	-0.0006019104
143	0x3d86f568	0.06589776
144	0xbeef4280	-0.46730423
145	0x3d3ab75c	0.04558502
146	0x3dfec95b	0.12440749
147	0xbe159cc3	-0.14610581
148	0xbba9dbac	-0.0051836576
149	0x3f31df3a	0.6948124
150	0x3d80f010	0.06295788
151	0x3e9c3907	0.30512258
152	0xbf1fda91	-0.6244288
153	0xbec56298	-0.38551784
154	0xbf084400	-0.5322876
155	0xbea59c7f	-0.3234596
156	0xbeb9c818	-0.36285472
157	0xbda3ad22	-0.07992007
158	0x3e712370	0.23548675
159	0x3d8861b3	0.0665926
160	0x3d8db939	0.06920094
161	0x3e6b4885	0.22976883
162	0x3e18337f	0.14863394
163	0x3c9dd8e1	0.019268455
164	0xbf38159f	-0.7190799
165	0xbed569b4	-0.41682208
166	0xbf588ddc	-0.8459146
167	0x3ece1219	0.40248182
168	0xbf17761d	-0.591646
169	0xbf00cc11	-0.5031138
170	0xbecdc07d	-0.4018592
171	0xbe951ab0	-0.29121923
172	0x3e6c93a9	0.23103203
173	0x3e62d344	0.22150904
174	0x3eda8f11	0.42687276
175	0x3ec00b90	0.3750882
176	0x3eb979f7	0.36225864
177	0x3eacdced	0.33762303
178	0xbe92ad0d	-0.28647652
179	0x3edac7c8	0.42730546
180	0xbe63ec41	-0.22258092
181	0x3f006a0a	0.501618
182	0xbf2d5189	-0.6770254
183	0x3ea2a8af	0.3176932
184	0xbf2d4074	-0.6767647
185	0x3f773b6f	0.96575063
186	0xbf49634c	-0.7866714
187	0xbf7e05e7	-0.99227756
188	0x3d321e7e	0.04348611
189	0xbe6ddd90	-0.2322905
190	0x3d7d6b04	0.061869636
191	0xbe0451de	-0.12921855
192	0xbe095055	-0.1340955
193	0x3e66f018	0.22552526
194	0x3f485157	0.78249115
195	0xbf8f1043	-1.1176838
196	0x3edada24	0.42744553
197	0x3ef8bb7b	0.48580536
198	0x3ea78c7a	0.32724363
199	0xbe915823	-0.28387555
200	0x3ea30718	0.3184135
201	0xbf7a82ae	-0.9785565
202	0x3e8fe2f3	0.28102836
203	0xbf49de32	-0.7885467
204	0x3e7e7524	0.24849373
205	0x3e32e12b	0.17468707
206	0x3de06b1b	0.10957929
207	0xbd9c6f03	-0.07638361
208	0x3e8b0a96	0.27156514
209	0xbf21a90b	-0.63148564
210	0x3eeb809f	0.45996568
211	0x3f060510	0.52351475
212	0xbf033447	-0.51251644
213	0xbc89be82	-0.016814474
214	0x3ee9539b	0.45571598
215	0x3e757310	0.23969674
216	0xbe81cc70	-0.25351286
217	0x3daa8347	0.083258204
218	0xbeea4f7e	-0.45763773
219	0x3eed21ee	0.4631495
220	0x3e5e5b5c	0.21714538
221	0x3f251373	0.644828
222	0x3d611692	0.054953165
223	0xbe2e03c4	-0.16993624
224	0x3d458fd6	0.048232876
225	0xbd872603	-0.06599047
226	0x3e36e2d6	0.17859969
227	0xbed0d362	-0.40786272
228	0x3d5133a5	0.051074643
229	0x3ec0fd39	0.37693194
230	0x3e694461	0.2277999
231	0xbf345c00	-0.7045288
232	0x3f2f757f	0.6853866
233	0xbe482ced	-0.19548388
234	0x3f0bf524	0.5467093
235	0xbec1da18	-0.37861705
236	0xbf335f11	-0.70066935
237	0x3d99e971	0.075152285
238	0xbd77ac92	-0.06046731
239	0xbef57f51	-0.47948697
240	0xbee103bc	-0.43948162
241	0xbe079bda	-0.13243046
242	0x3ded701d	0.115936495
243	0xbecb826c	-0.39747941
244	0xbfac97e6	-1.3483856
245	0x3e8c74dd	0.2743291
246	0xbd7b01fd	-0.061281193
247	0xbe90c1f2	-0.2827297
248	0xbde96f4a	-0.1139818
249	0x3f3a7c3a	0.72845805
250	0x3f57751d	0.84163076
251	0xbf6c6790	-0.92345524
252	0xbed80325	-0.421899
253	0xbc5b54dd	-0.013386932
254	0x3e6d473e	0.23171708
255	0xbc36b659	-0.0111518735

fc1.bias f4 [64]
0	0x3deabc35	0.11461679
1	0x3f225b17	0.6342024
2	0x3e74ed71	0.23918702
3	0xbe94e642	-0.29081923
4	0xbe29cfc6	-0.16583166
5	0xbe50ed52	-0.2040303
6	0xbea2933d	-0.3175296
7	0x3e02de12	0.12780026
8	0xbeacd3bc	-0.3375529
9	0xbc2aef3b	-0.010433014
10	0x3db0f7b2	0.08640994
11	0x3c9330bc	0.017967574
12	0xbe140684	-0.1445561
13	0xbe5619c1	-0.20908262
14	0x3df9b984	0.121935874
15	0x3d1e4c33	0.038646888
16	0xbeb01279	-0.34389094
17	0xbe69311c	-0.2277264
18	0x3d4eca3d	0.05048584
19	0xbcf6dc71	-0.030134412
20	0x3e9be717	0.30449745
21	0x3e7293f8	0.23689258
22	0x3e53b302	0.20673755
23	0xbcb275e4	-0.02178473
24	0x3ebb0ac7	0.3653166
25	0x3db54fde	0.08853124
26	0xbe8cf268	-0.2752869
27	0x3ec59796	0.38592213
28	0x3eb0270d	0.34404793
29	0xbe787a7e	-0.24265477
30	0x3da8ca6e	0.082417354
31	0x3e3201e7	0.17383538
32	0xbe2462be	-0.16053292
33	0x3edba936	0.42902535
34	0xbe035f33	-0.12829284
35	0x3de5ed08	0.11226851
36	0xbd09dd2b	-0.033658188
37	0x3ee4fa78	0.44722342
38	0x3e1aea08	0.15128338
39	0xbe379722	-0.17928746
40	0x3f120692	0.57041276
41	0x3dd2fbda	0.10301943
42	0xbdc796ee	-0.097455844
43	0xbdafc50c	-0.085825056
44	0x3e4be50c	0.19911593
45	0x3e66e2fe	0.22547528
46	0xbe8985cf	-0.268599
47	0x3bb82209	0.0056192917
48	0x3cdb84c9	0.026796715
49	0x3dafaa86	0.08577447
50	0x3e20e733	0.15713196
51	0xbe7180e9	-0.23584332
52	0x3e2604dc	0.16212791
53	0x3df324bd	0.11872242
54	0xbee7326c	-0.45155656
55	0x3da84613	0.082164906
56	0x3e82e549	0.25565556
57	0x3e581805	0.21102913
58	0x3e11ec55	0.1425031
59	0x3e067e5c	0.1313414
60	0x3a9b6dfc	0.001185834
61	0xbea6064a	-0.32426673
62	0x3d182473	0.037144136
63	0xbd81a08d	-0.06329451

fc2.weight f4 [64, 64]
0	0xbecb39ed	-0.3969263
1	0x3f01f847	0.50769466
2	0xbe004bc7	-0.12528907
3	0xbe2f6197	-0.17127071
4	0xbe829578	-0.2550466
5	0xbf82f93f	-1.0232314
6	0xbde53cfd	-0.11193273
7	0xbf3ecb8e	-0.7452935
8	0xbf78d5cf	-0.97201246
9	0xbf7587b1	-0.95910174
10	0xbf24b90f	-0.64344877
11	0x3f72b778	0.948112
12	0xbd1874ee	-0.037220888
13	0xbde32d21	-0.11092592
14	0xbec4902b	-0.3839124
15	0x3fb36b6a	1.4017155
16	0xbf07d370	-0.53057003
17	0xbeebc219	-0.46046522
18	0x3ea9865c	0.3311032
19	0xbf3ce4ac	-0.73786426
20	0xbf91e37a	-1.1397545
21	0xbf046eeb	-0.5173175
22	0x3e03117c	0.12799639
23	0x3ea9ab9e	0.33138746
24	0x3f3014a7	0.6878151
25	0xbf1c0316	-0.6094221
26	0xbe7e5fdc	-0.24841255
27	0xc022e954	-2.5454912
28	0x3d8ddffe	0.06927489
29	0xbf95b6e9	-1.1696445
30	0x3f8466d9	1.0343887
31	0x3ed1bb11	0.40963033
32	0xbdadb943	-0.084826015
33	0xbecccb62	-0.3999892
34	0x3f16c7f5	0.5889886
35	0xbe60e634	-0.21962816
36	0xbf21263a	-0.62948954
37	0x3f10f8c7	0.56629604
38	0xbf5e095c	-0.8673303
39	0xbedfadd2	-0.43687302
40	0x3f11266c	0.5669925
41	0xbf580207	-0.84378093
42	0xbf684fdd	-0.9074686
43	0xbf08ff26	-0.53514326
44	0xbe950e55	-0.29112497
45	0xbf27e630	-0.65585613
46	0xbedb9842	-0.428896
47	0xbe1c4aa6	-0.15262851
48	0x3eea692f	0.45783374
49	0xbea1f214	-0.31630003
50	0x3f48efd8	0.7849097
51	0xbf6825e7	-0.90682834
52	0xba8aa0d9	-0.0010576501
53	0x3f799e5d	0.9750727
54	0xbe884894	-0.26617873
55	0xbf5470d1	-0.82984644
56	0xbeb3f2e2	-0.35146242
57	0xbf57e6a0	-0.8433628
58	0x3f81350e	1.0094316
59	0xbf189072	-0.59595406
60	0xbf2e7fce	-0.68163764
61	0xbf9e52e3	-1.2369045
62	0xbf488079	-0.78321034
63	0xbeda2f78	-0.4261434
64	0xbe279927	-0.16367017
65	0x3e12c467	0.14332734
66	0x3ee554ef	0.44791362
67	0x3eaf3c3f	0.34225652
68	0x3f2a2481	0.6646195
69	0x3f273432	0.6531402
70	0x3eda9a18	0.4269569
71	0x3dcfa0c1	0.10138083
72	0xbd4a32f5	-0.049365003
73	0x3d0d82f6	0.034548722
74	0xbb85815d	-0.004074259
75	0xbe9a4ce5	-0.3013679
76	0x3e658d53	0.22417192
77	0x3eadb189	0.3392451
78	0x3e3cbc58	0.18431222
79	0xbed57d13	-0.41696987
80	0xbeef23f7	-0.46707126
81	0x3f06c54c	0.526448
82	0xbddf5d08	-0.10906416
83	0x3e1eb66b	0.15499274
84	0x3f18bbba	0.5966145
85	0x3db24285	0.08704094
86	0xbdb8eaca	-0.090291575
87	0x3e9670e5	0.29383007
88	0x3e9e0f08	0.30870843
89	0xbe38edcd	-0.18059464
90	0x3eff722a	0.49891788
91	0xbe7fc7bf	-0.24978541
92	0xbe5463a2	-0.20741132
93	0x3e3e6d14	0.18596298
94	0xbe9b866a	-0.30375987
95	0x3ec095e1	0.3761435
96	0xbecf8de0	-0.4053793
97	0xbe1f1960	-0.15537024
98	0xbec1cb95	-0.37850633
99	0x3ef8048d	0.48440972
100	0xbe8f9fb0	-0.2805152
101	0x3dc798b5	0.097459234
102	0xbe10cc4c	-0.14140433
103	0x3db3a452	0.08771576
104	0x3e931acf	0.2873139
105	0x3e801422	0.2501536
106	0x3e7ebbc4	0.24876314
107	0x3e38e953	0.18057756
108	0x3d6c2840	0.057655573
109	0x3dff2dac	0.12459883
110	0x3edf85f6	0.43656892
111	0x3eb6fbe1	0.35739043
112	0x3e0a23f8	0.13490283
113	0xbda62738	-0.08112949
114	0x3edf39e5	0.43598858
115	0x3e437015	0.19085725
116	0xbe0715b1	-0.13191868
117	0xbe69872e	-0.22805473
118	0x3d6396d4	0.055563763
119	0xbddd4b7d	-0.10805414
120	0x39f20ef9	0.00046168992
121	0x3dc7962c	0.0974544
122	0xbf0aa90d	-0.541642
123	0x3f2b7275	0.6697152
124	0xbe395b0f	-0.18101142
125	0x3e2ca938	0.16861427
126	0x3ec98fa9	0.39367417
127	0x3e214507	0.15748988
128	0x3d66254c	0.056187913
129	0x3d169c52	0.036770172
130	0x3eab55d6	0.33463925
131	0x3e55e96b	0.20889823
132	0x3f3ef37a	0.74590266
133	0x3f0cbfcf	0.54980177
134	0x3ed6cd01	0.4195328
135	0x3d0b6507	0.034031894
136	0x3ebe131d	0.37123957
137	0x3c1d4cb8	0.009600811
138	0x3e3ab807	0.18234263
139	0xbf10d861	-0.5658017
140	0x3ec5bf7f	0.38622662
141	0x3efe6c91	0.49692205
142	0x3f052162	0.52004063
143	0xbf5cea70	-0.86295223
144	0x3e39091d	0.18069883
145	0x3f0b0ffb	0.5432126
146	0x3e7b6622	0.2455068
147	0x3de80f8a	0.11331089
148	0x3f06ee2c	0.5270717
149	0x3e4ccb6b	0.19999473
150	0xbe9e4d9a	-0.3091858
151	0x3e627376	0.22114357
152	0x3e25bd85	0.16185577
153	0xbdc32889	-0.09529216
154	0x3ec822a7	0.39088938
155	0x3e8b6982	0.27228934
156	0x3e4d4030	0.20044017
157	0x3ed3c2d4	0.4135958
158	0xbf71d469	-0.9446474
159	0x3e811806	0.2521364
160	0x3e4b8de3	0.19878344
161	0xbd86d8f5	-0.0658435
162	0xbf4fd4a4	-0.8118384
163	0x3e9332d7	0.28749725
164	0x3c8300a6	0.01599152
165	0x3d0ed621	0.034872178
166	0x3e9458d5	0.28974023
167	0x3e018abd	0.1265058
168	0xbc8fdd16	-0.017561477
169	0x3e981500	0.29703522
170	0x3ef9d92d	0.48798504
171	0x3eb1ee32	0.3475204
172	0x3ee85721	0.45378974
173	0x3eda1b5a	0.42598993
174	0x3f12ff67	0.57420963
175	0x3eaf0cb0	0.34189367
176	0x3c79a985	0.0152381705
177	0x3d88372f	0.066511504
178	0x3e3260a0	0.17419672
179	0x3f0fb31c	0.56132674
180	0x3e09b66e	0.13448498
181	0xbdb6b755	-0.089216866
182	0x3e51dbe1	0.20494033
183	0x3cd61613	0.026133573
184	0x3d0eff2e	0.034911327
185	0x3e0c8251	0.13721587
186	0xbf00a176	-0.5024637
187	0x3e9ba50f	0.30399367
188	0x3dbd279e	0.09236072
189	0x3f000e9c	0.5002229
190	0x3efb8101	0.4912186
191	0x3ed1f4a2	0.41006953
192	0x3d8cd787	0.06877046
193	0x3da3e19d	0.08002017
194	0x3ddc256e	0.10749327
195	0x3da7a1c4	0.08185151
196	0x3ec875d6	0.39152402
197	0x3f2133ae	0.6296948
198	0x3edafe24	0.4277202
199	0x3c9d7a37	0.019223316
200	0x3edbfc9a	0.42966157
201	0x3d4756c7	0.04866674
202	0x3e6cadaf	0.2311313
203	0xbf0a2184	-0.5395739
204	0x3e802c61	0.25033858
205	0x3eca5608	0.39518762
206	0x3ed65f4f	0.4186959
207	0xbf70c667	-0.9405274
208	0xbd95b80b	-0.07310494
209	0x3e9aa684	0.30205166
210	0x3db164f9	0.08661837
211	0x3e0fd2ad	0.1404521
212	0x3f06115f	0.52370256
213	0x3e43d795	0.19125207
214	0xbec2f51f	-0.38077638
215	0x3e629a6d	0.22129221
216	0x3d93f8cd	0.07225189
217	0x3c8024a5	0.015642473
218	0x3ec8d1aa	0.3922246
219	0x3e014a06	0.12625894
220	0x3e595895	0.21225198
221	0x3f047f23	0.51756495
222	0xbf60975d	-0.8773096
223	0x3e23abae	0.1598346
224	0x3e078c73	0.13237171
225	0x3e27691d	0.16348691
226	0xbf2025cb	-0.6255767
227	0x3eeef912	0.466744
228	0xbda14fca	-0.07876547
229	0x3dc63eee	0.09679972
230	0x3dbfbe65	0.09362487
231	0x3e2f5af1	0.17124535
232	0xbcbb2ba3	-0.022847956
233	0x3e4f4aa1	0.20243312
234	0x3ebbaf2e	0.3665709
235	0x3e41462e	0.18874428
236	0x3eb5e605	0.35527053
237	0x3f079412	0.5296031
238	0x3f0c05ac	0.54696155
239	0x3e9abb52	0.3022104
240	0x3e0846f7	0.13308321
241	0x3e965543	0.29361925
242	0x3ea70130	0.32618093
243	0x3eca6e91	0.3953748
244	0x3e809285	0.25111786
245	0xbde36f43	-0.11105206
246	0x3e5a0ee7	0.21294747
247	0x3d0ea037	0.03482076
248	0x3e248344	0.16065699
249	0x3dd66b3d	0.10469673
250	0xbf153017	-0.58276504
251	0x3eac196e	0.3361315
252	0x3de82a20	0.1133616
253	0x3eba16ce	0.36345524
254	0x3f1c7e6c	0.61130404
255	0x3edcba12	0.4311071

fc2.bias f4 [64]
0	0x3de41d90	0.11138451
1	0x3dca9460	0.098915815
2	0xbdd35558	-0.103190124
3	0x3c96bc59	0.018400358
4	0x3e60aef4	0.2194174
5	0xb957edb1	-0.00020592545
6	0xbe2451bd	-0.16046806
7	0x3c6e6a68	0.014551736
8	0x3dc099dc	0.09404346
9	0x3d120a6f	0.03565448
10	0xbdc27111	-0.09494222
11	0xbe1002f2	-0.14063624
12	0xbd897c3e	-0.067131504
13	0xbc49b59d	-0.012311366
14	0x3ec8effa	0.39245588
15	0x3db451d8	0.08804673
16	0x3d5e1b09	0.054225
17	0x3d544ac4	0.051829115
18	0x3aa9076e	0.0012895891
19	0x3f03261c	0.51230025
20	0x3d34062f	0.04395121
21	0x3de65d42	0.11248256
22	0xbec0d053	-0.3765894
23	0x3c046c37	0.008082441
24	0xbb92a1b3	-0.0044748425
25	0xbbc43d2e	-0.0059887385
26	0x3d23ac0b	0.039958995
27	0x3ec9d4d7	0.39420196
28	0xbb057ae0	-0.0020367429
29	0x3d3e5fed	0.0464782
30	0x3ef77de3	0.4833823
31	0x3e065e79	0.13121976
32	0x3e02a5e2	0.12758592
33	0x3d907398	0.07053298
34	0x3e9d2a73	0.3069645
35	0x3eb99910	0.3624959
36	0x3eb67558	0.356364
37	0x3ebd117c	0.36927402
38	0x3ee587c1	0.44830135
39	0x3e47deef	0.19518636
40	0x3cbfd70f	0.023417978
41	0x3ccf7007	0.025321973
42	0x3cedd5d2	0.029032622
43	0x3d0478f7	0.032341924
44	0x3d3176c2	0.043326147
45	0xbc4a573a	-0.012349898
46	0x3d56c3e2	0.052432902
47	0x3eea7e05	0.4579927
48	0x3e8c69c8	0.27424455
49	0x3d1bfd5d	0.038083423
50	0x3e05493a	0.13016215
51	0xbd841225	-0.06448773
52	0xbc35df4a	-0.0111006
53	0xbe1dce28	-0.15410674
54	0x3d01d742	0.031699426
55	0x3e90dfc7	0.2829573
56	0x3d1cc231	0.038271133
57	0xbd982ab0	-0.07430017
58	0x3e663a93	0.22483282
59	0x3dc8ef74	0.09811297
60	0xbd9b66ca	-0.07587965
61	0xbb3bebc4	-0.0028674463
62	0x3d6f9135	0.05848809
63	0xbdbb03d7	-0.09131592

fc3.weight f4 [4, 64]
0	0x401ffdd2	2.499867
1	0xbe4ef92b	-0.20212238
2	0xbed18a7c	-0.40925968
3	0xbe7c0a84	-0.24613386
4	0x3f93540e	1.1510026
5	0xbe999a54	-0.30000556
6	0xbee9551c	-0.45572746
7	0x3e96b530	0.2943511
8	0xbe9443c9	-0.28957966
9	0xbde66065	-0.112488545
10	0xbec22e18	-0.37925792
11	0x3d80ff6e	0.06298719
12	0xbea8990a	-0.3292926
13	0x3ee93405	0.455475
14	0x4001eacb	2.0299556
15	0xbe258dec	-0.1616742
16	0xbeb977f4	-0.3622433
17	0xbeb25d93	-0.34837016
18	0xbebc9dec	-0.36839235
19	0x400ad9e9	2.1695502
20	0xbe3be2ca	-0.18348232
21	0xbe1372b4	-0.14399225
22	0xbf270077	-0.65235084
23	0xbe47e605	-0.19521339
24	0xbea67514	-0.325112
25	0xbea424a9	-0.3205922
26	0xbeb4119f	-0.35169694
27	0x3f320f3f	0.69554514
28	0xbbdbaa79	-0.0067036715
29	0xbe460c84	-0.19340712
30	0x3fadfa19	1.3591949
31	0x3fd0ee6a	1.6322758
32	0x3f6fda79	0.9369274
33	0xbe86b505	-0.26309982
34	0xbf2fcd2a	-0.6867243
35	0x3f7cbf25	0.98729163
36	0xbea66f52	-0.32506806
37	0x3f2369d2	0.63833344
38	0x3f09a386	0.5376514
39	0x3f21a227	0.6313805
40	0xbe8c5f9a	-0.27416688
41	0xbe5dde84	-0.21666914
42	0xbe984b3f	-0.29744908
43	0xbee64c7c	-0.44980228
44	0xbeb21b25	-0.34786335
45	0xbda2b449	-0.07944543
46	0x3da4ef73	0.08053484
47	0x3ff76c00	1.9329834
48	0xbeb64771	-0.3560138
49	0xbeaacc36	-0.33358926
50	0xbeae33c2	-0.34023863
51	0xbdab367a	-0.0836
52	0xbe7ad1f2	-0.2449415
53	0x3d96b5e6	0.07358913
54	0xbe8f5db0	-0.28001165
55	0x3fba8ec5	1.457482
56	0xbe71c8ce	-0.23611757
57	0xbeb03cf3	-0.344215
58	0x3f87b7e0	1.0602989
59	0xbe93655f	-0.28788278
60	0xbd85774a	-0.06516893
61	0x3d7a2ce0	0.061077952
62	0xbec1a18a	-0.37818557
63	0xbed02343	-0.40651903
64	0x400c333d	2.1906273
65	0xbe3e722e	-0.18598244
66	0xbe90a800	-0.28253174
67	0xbec40c14	-0.38290465
68	0x3f6d9bc8	0.9281583
69	0xbe73fdf8	-0.2382735
70	0xbebd0c12	-0.3692327
71	0x3ead001e	0.33789152
72	0xbe450cc2	-0.19243148
73	0xbe7a15a0	-0.24422312
74	0xbe75000d	-0.239258
75	0xbdb28bec	-0.08718094
76	0xbe9521c6	-0.2912733
77	0x3e8e115f	0.27747628
78	0x3ff8cc53	1.9437355
79	0xbeb9369b	-0.36174473
80	0xbe95c53f	-0.2925205
81	0xbed823b4	-0.4221474
82	0xbe9ebe94	-0.31004775
83	0x3fed73b7	1.8550938
84	0xbe83ecb6	-0.25766534
85	0xbe87a887	-0.26495764
86	0xbed53465	-0.41641536
87	0xbec697e8	-0.3878777
88	0xbed04fd9	-0.4068592
89	0xbe84f047	-0.25964567
90	0xbec3a6fb	-0.38213333
91	0x3f2c3b7f	0.67278284
92	0x3d470706	0.048590682
93	0xbea6f9bb	-0.32612404
94	0x3fbf8d23	1.4964947
95	0x3fbb6c32	1.4642394
96	0x3ef87e6e	0.48533958
97	0xbe653574	-0.22383672
98	0xbf38af5a	-0.72142565
99	0x3fae0e37	1.3598088
100	0xbf44dd8b	-0.7690055
101	0x3ef3e7ca	0.4763778
102	0x3f2ff6f9	0.68736225
103	0x3f40a3db	0.75250024
104	0xbe662187	-0.22473727
105	0xbeaced40	-0.33774757
106	0xbeb84226	-0.35987967
107	0xbe62b0a0	-0.2213769
108	0xbe900344	-0.2812749
109	0xbddc49f5	-0.10756294
110	0xbd9dcb8c	-0.07704839
111	0x3fe4be54	1.7870584
112	0x3ebb295f	0.36555
113	0xbe820333	-0.25393066
114	0xbea14ae9	-0.31502464
115	0x3d4ae962	0.049538977
116	0xbec9bc25	-0.39401355
117	0x3df4f1fc	0.11960217
118	0xbe1e13a2	-0.15437177
119	0x3fbdb070	1.481947
120	0xbeb054c3	-0.34439668
121	0xbf08f909	-0.53505
122	0x3fa033fb	1.2515863
123	0xbe91a16a	-0.28443462
124	0x3b900447	0.004395041
125	0x3d39c027	0.045349266
126	0xbeb67c74	-0.35641825
127	0xbe280451	-0.16407897
128	0x3fa8a059	1.3173934
129	0xbf41acbc	-0.75654197
130	0xbea95a02	-0.33076483
131	0xbe45ed80	-0.1932888
132	0x3ff2aaa4	1.8958325
133	0xbe749286	-0.2388402
134	0xbea18568	-0.31547093
135	0xbf627d7f	-0.8847274
136	0xbebb8054	-0.36621344
137	0xbea723cd	-0.326445
138	0xbea9b7d6	-0.33148068
139	0x3daad440	0.08341265
140	0xbea4b895	-0.32172075
141	0xbf762b38	-0.96159697
142	0x3f9808c8	1.187768
143	0xbe89a6cf	-0.26885077
144	0xbe235895	-0.1595176
145	0xbe99b4d7	-0.30020782
146	0xbe784b71	-0.24247529
147	0x3ff7bcd3	1.93545
148	0xbec63f9f	-0.38720414
149	0x3b5e68de	0.0033937017
150	0xbeec2f8f	-0.46130034
151	0xbec86294	-0.3913771
152	0xbe3c6136	-0.18396458
153	0xbed5f4f2	-0.4178844
154	0xbe8ac0c9	-0.27100208
155	0x3f966b4d	1.1751496
156	0x3d99e81a	0.07514973
157	0xbeb000be	-0.34375566
158	0x3fa49bdb	1.2860063
159	0x3fd560fa	1.667022
160	0xbfc9264c	-1.5714812
161	0xbe21796a	-0.15768972
162	0xbf4bb411	-0.79571635
163	0x3f9a542b	1.2056936
164	0xbf46b8ef	-0.77625936
165	0xbfa02b39	-1.251319
166	0x3fa0e7d2	1.2570746
167	0x3fc47fba	1.5351479
168	0xbefefc38	-0.49801803
169	0xbe8b5b9a	-0.27218324
170	0xbe05b40b	-0.13056962
171	0xbe9f1ae0	-0.31075191
172	0xbea146e8	-0.3149941
173	0x3f7ac999	0.97963864
174	0x3d8b3b77	0.067984514
175	0x4006757d	2.100921
176	0xbda2c387	-0.0794745
177	0xbe8a1034	-0.26965487
178	0xbeb360d6	-0.35034817
179	0xbd84d134	-0.06485215
180	0xbe3ca303	-0.18421559
181	0xbc02a637	-0.007974199
182	0xbd729ff0	-0.05923456
183	0x3fb7eba5	1.4368788
184	0xbe79ba59	-0.24387492
185	0xbe501217	-0.203194
186	0xbf0c55e3	-0.5481855
187	0xbe5bf59e	-0.21480414
188	0x3dfaaf98	0.12240523
189	0x3a17ec58	0.0005795411
190	0xbe2e7133	-0.1703537
191	0xbeaed06d	-0.3414339
192	0x4021c7ce	2.52782
193	0xbe88913c	-0.26673305
194	0xbe923c2d	-0.28561535
195	0xbebb0e0c	-0.36534154
196	0x3fbdc9e4	1.4827237
197	0xbe8b86b6	-0.27251214
198	0xbe46798c	-0.19382304
199	0xbd790c42	-0.060802706
200	0xbebe55ec	-0.37174928
201	0xbed1f379	-0.41006067
202	0xbea622fd	-0.3244857
203	0xbdd6af71	-0.104826815
204	0xbe8f0c8f	-0.2793927
205	0x3df799af	0.1208986
206	0x3fd868e6	1.6907012
207	0xbe86206f	-0.2619662
208	0xbed2ec42	-0.41195875
209	0xbe03e61f	-0.12880753
210	0xbeacb86f	-0.33734462
211	0x4022eb5b	2.545615
212	0xbeb4bf83	-0.35302362
213	0xbeb0958b	-0.34489092
214	0xbe4d945f	-0.2007613
215	0xbe6205d5	-0.22072537
216	0xbe8fcd68	-0.280864
217	0xbe2e8d6f	-0.1704614
218	0xbea6b467	-0.3255951
219	0x3e7dd455	0.2478803
220	0xbca6db33	-0.020368194
221	0xbec61698	-0.38689113
222	0x3fd2a6c4	1.6457143
223	0x3fcd2800	1.6027832
224	0x3f0079a5	0.50185615
225	0xbebd7b4f	-0.3700814
226	0xbe4bff66	-0.19921646
227	0x3f196530	0.59920025
228	0xbe9e9b8f	-0.30978057
229	0x3f4908a4	0.7852881
230	0x3f53673c	0.825794
231	0x3ea0bde0	0.31394863
232	0xbea66322	-0.32497507
233	0xbe88c7ae	-0.26714844
234	0xbea5b420	-0.32363987
235	0xbe83dfa9	-0.25756577
236	0xbea33654	-0.31877387
237	0x3ec3bba0	0.38229084
238	0xbd2b4bbd	-0.041820277
239	0x4011525a	2.2706513
240	0xbf3f5c1e	-0.74749935
241	0xbeaf3c8a	-0.34225875
242	0xbebe3bdd	-0.37155047
243	0xbde32e2a	-0.110927895
244	0xbe798903	-0.24368672
245	0xbc13c8c1	-0.009020031
246	0xbea0f4b7	-0.31436703
247	0x3f9ccfb1	1.2250882
248	0xbeb9dc68	-0.3630097
249	0xbeaa6369	-0.3327897
250	0x3f38f565	0.7224944
251	0xbeab2ba1	-0.33431724
252	0x3d307c08	0.043087035
253	0x3d2f80da	0.04284749
254	0xbe906003	-0.2819825
255	0xbf01df59	-0.50731426

fc3.bias f4 [4]
0	0x3ca1c4ba	0.019747127
1	0x3c9ecc51	0.019384535
2	0x3d4c5c69	0.049892817
3	0xbe3874bc	-0.1801328
